{"class_name": "Sequential", "keras_version": "2.1.5", "config": [{"class_name": "Conv2D", "config": {"kernel_initializer": {"class_name": "RandomNormal", "config": {"seed": null, "stddev": 0.001, "mean": 0.0}}, "name": "conv2d_1", "kernel_constraint": null, "bias_regularizer": null, "bias_constraint": null, "dtype": "float32", "activation": "selu", "trainable": true, "data_format": "channels_first", "filters": 64, "padding": "same", "strides": [1, 1], "dilation_rate": [1, 1], "kernel_regularizer": null, "bias_initializer": {"class_name": "Zeros", "config": {}}, "batch_input_shape": [null, 4, 16, 16], "use_bias": true, "activity_regularizer": null, "kernel_size": [5, 5]}}, {"class_name": "Conv2D", "config": {"kernel_constraint": null, "kernel_initializer": {"class_name": "RandomNormal", "config": {"seed": null, "stddev": 0.001, "mean": 0.0}}, "name": "conv2d_2", "bias_regularizer": null, "bias_constraint": null, "activation": "selu", "trainable": true, "data_format": "channels_first", "padding": "same", "strides": [1, 1], "dilation_rate": [1, 1], "kernel_regularizer": null, "filters": 64, "bias_initializer": {"class_name": "Zeros", "config": {}}, "use_bias": true, "activity_regularizer": null, "kernel_size": [3, 3]}}, {"class_name": "Conv2D", "config": {"kernel_constraint": null, "kernel_initializer": {"class_name": "RandomNormal", "config": {"seed": null, "stddev": 0.001, "mean": 0.0}}, "name": "conv2d_3", "bias_regularizer": null, "bias_constraint": null, "activation": "selu", "trainable": true, "data_format": "channels_first", "padding": "same", "strides": [1, 1], "dilation_rate": [1, 1], "kernel_regularizer": null, "filters": 64, "bias_initializer": {"class_name": "Zeros", "config": {}}, "use_bias": true, "activity_regularizer": null, "kernel_size": [3, 3]}}, {"class_name": "Conv2D", "config": {"kernel_constraint": null, "kernel_initializer": {"class_name": "RandomNormal", "config": {"seed": null, "stddev": 0.001, "mean": 0.0}}, "name": "conv2d_4", "bias_regularizer": null, "bias_constraint": null, "activation": "selu", "trainable": true, "data_format": "channels_first", "padding": "same", "strides": [1, 1], "dilation_rate": [1, 1], "kernel_regularizer": null, "filters": 64, "bias_initializer": {"class_name": "Zeros", "config": {}}, "use_bias": true, "activity_regularizer": null, "kernel_size": [3, 3]}}, {"class_name": "Conv2D", "config": {"kernel_constraint": null, "kernel_initializer": {"class_name": "RandomNormal", "config": {"seed": null, "stddev": 0.001, "mean": 0.0}}, "name": "conv2d_5", "bias_regularizer": null, "bias_constraint": null, "activation": "selu", "trainable": true, "data_format": "channels_first", "padding": "same", "strides": [1, 1], "dilation_rate": [1, 1], "kernel_regularizer": null, "filters": 64, "bias_initializer": {"class_name": "Zeros", "config": {}}, "use_bias": true, "activity_regularizer": null, "kernel_size": [3, 3]}}, {"class_name": "Conv2D", "config": {"kernel_constraint": null, "kernel_initializer": {"class_name": "RandomNormal", "config": {"seed": null, "stddev": 0.001, "mean": 0.0}}, "name": "conv2d_6", "bias_regularizer": null, "bias_constraint": null, "activation": "selu", "trainable": true, "data_format": "channels_first", "padding": "same", "strides": [1, 1], "dilation_rate": [1, 1], "kernel_regularizer": null, "filters": 64, "bias_initializer": {"class_name": "Zeros", "config": {}}, "use_bias": true, "activity_regularizer": null, "kernel_size": [3, 3]}}, {"class_name": "Conv2D", "config": {"kernel_constraint": null, "kernel_initializer": {"class_name": "RandomNormal", "config": {"seed": null, "stddev": 0.001, "mean": 0.0}}, "name": "conv2d_7", "bias_regularizer": null, "bias_constraint": null, "activation": "selu", "trainable": true, "data_format": "channels_first", "padding": "same", "strides": [1, 1], "dilation_rate": [1, 1], "kernel_regularizer": null, "filters": 64, "bias_initializer": {"class_name": "Zeros", "config": {}}, "use_bias": true, "activity_regularizer": null, "kernel_size": [3, 3]}}, {"class_name": "Conv2D", "config": {"kernel_constraint": null, "kernel_initializer": {"class_name": "RandomNormal", "config": {"seed": null, "stddev": 0.001, "mean": 0.0}}, "name": "conv2d_8", "bias_regularizer": null, "bias_constraint": null, "activation": "selu", "trainable": true, "data_format": "channels_first", "padding": "same", "strides": [1, 1], "dilation_rate": [1, 1], "kernel_regularizer": null, "filters": 64, "bias_initializer": {"class_name": "Zeros", "config": {}}, "use_bias": true, "activity_regularizer": null, "kernel_size": [3, 3]}}, {"class_name": "Conv2D", "config": {"kernel_constraint": null, "kernel_initializer": {"class_name": "RandomNormal", "config": {"seed": null, "stddev": 0.001, "mean": 0.0}}, "name": "conv2d_9", "bias_regularizer": null, "bias_constraint": null, "activation": "selu", "trainable": true, "data_format": "channels_first", "padding": "same", "strides": [1, 1], "dilation_rate": [1, 1], "kernel_regularizer": null, "filters": 64, "bias_initializer": {"class_name": "Zeros", "config": {}}, "use_bias": true, "activity_regularizer": null, "kernel_size": [3, 3]}}, {"class_name": "Conv2D", "config": {"kernel_constraint": null, "kernel_initializer": {"class_name": "RandomNormal", "config": {"seed": null, "stddev": 0.001, "mean": 0.0}}, "name": "conv2d_10", "bias_regularizer": null, "bias_constraint": null, "activation": "selu", "trainable": true, "data_format": "channels_first", "padding": "same", "strides": [1, 1], "dilation_rate": [1, 1], "kernel_regularizer": null, "filters": 64, "bias_initializer": {"class_name": "Zeros", "config": {}}, "use_bias": true, "activity_regularizer": null, "kernel_size": [3, 3]}}, {"class_name": "Conv2D", "config": {"kernel_constraint": null, "kernel_initializer": {"class_name": "RandomNormal", "config": {"seed": null, "stddev": 0.001, "mean": 0.0}}, "name": "conv2d_11", "bias_regularizer": null, "bias_constraint": null, "activation": "selu", "trainable": true, "data_format": "channels_first", "padding": "same", "strides": [1, 1], "dilation_rate": [1, 1], "kernel_regularizer": null, "filters": 64, "bias_initializer": {"class_name": "Zeros", "config": {}}, "use_bias": true, "activity_regularizer": null, "kernel_size": [3, 3]}}, {"class_name": "Conv2D", "config": {"kernel_constraint": null, "kernel_initializer": {"class_name": "RandomNormal", "config": {"seed": null, "stddev": 0.001, "mean": 0.0}}, "name": "conv2d_12", "bias_regularizer": null, "bias_constraint": null, "activation": "linear", "trainable": true, "data_format": "channels_first", "padding": "same", "strides": [1, 1], "dilation_rate": [1, 1], "kernel_regularizer": null, "filters": 4, "bias_initializer": {"class_name": "Zeros", "config": {}}, "use_bias": true, "activity_regularizer": null, "kernel_size": [3, 3]}}], "backend": "tensorflow"}